src2/MyNet.pth (torch, 488191 bytes, 10 tensors)

conv1.weight f4 [16, 3, 5, 5]
0	0x3c04617b	0.008079882
1	0x3d4eac35	0.0504572
2	0xbd002ed3	-0.031294655
3	0xbd401c7f	-0.046902176
4	0x3dca7828	0.09886199
5	0x3d8886e5	0.06666354
6	0x3d1dd8da	0.038536884
7	0xbd8f607b	-0.07000824
8	0x3dbe851e	0.09302734
9	0x3d8cd2f9	0.06876177
10	0xbdf160d8	-0.117860496
11	0xbd63899b	-0.055551153
12	0xbde1c6d5	-0.11024252
13	0xbded2b0f	-0.115804784
14	0xbd5c6b08	-0.05381301
15	0xbd3ded09	-0.046368632
16	0x3b01db3d	0.0019814514
17	0xbda75d94	-0.081721455
18	0xbd2aadae	-0.04166954
19	0x3d1e7c79	0.038692925
20	0x3dd6d28f	0.104893796
21	0x3dd59496	0.10428731
22	0x3da3d49e	0.07999538
23	0x3d9f86c9	0.0778938
24	0x3daf6226	0.08563642
25	0xbe062da6	-0.13103351
26	0xbdb9a9a0	-0.090655565
27	0xbd8f6978	-0.070025384
28	0xbd8df575	-0.06931583
29	0x3d44db46	0.048060678
30	0x3e15f76a	0.14645162
31	0x3df65766	0.12028389
32	0x3d969a52	0.07353653
33	0x3c30e486	0.010796672
34	0xbd3d74ff	-0.046254154
35	0xbdebb4fb	-0.11509129
36	0x3d53bfe3	0.05169667
37	0xbcfa95d7	-0.030589027
38	0xbaaa977c	-0.0013015117
39	0x3ddf99e9	0.10918028
40	0xbdc6e40b	-0.097114645
41	0x3d121e22	0.03567327
42	0x3c7ec9fa	0.015551085
43	0xbdaf9194	-0.08572689
44	0xbce1efb1	-0.027580114
45	0x3e07998d	0.13242169
46	0x3c3772fa	0.011196846
47	0x3dbbe977	0.09175389
48	0xbb2c1aed	-0.0026261166
49	0xbdc4f981	-0.096179016
50	0xbda8b3d7	-0.08237427
51	0xbcb1520c	-0.021645568
52	0x3db46dfc	0.0881004
53	0xbe04356f	-0.12911008
54	0x3d11835c	0.035525665
55	0x3d4d7846	0.05016353
56	0xbcd9ae98	-0.02657251
57	0x3d4a5034	0.049392894
58	0xbd89e548	-0.06733185
59	0xbcf3e9f3	-0.029774642
60	0xbd08a035	-0.03335591
61	0x3d42d5e9	0.047567282
62	0xbde5454d	-0.11194859
63	0x3dafcd1d	0.08584044
64	0x3d572438	0.052524775
65	0xbd95a4b0	-0.07306802
66	0xbe169d98	-0.14708555
67	0xbd335d67	-0.043790247
68	0x3d9e8c06	0.07741551
69	0x3dab4456	0.083626434
70	0xbd89d74f	-0.0673052
71	0x3def469a	0.11683388
72	0x3dec1c78	0.115288675
73	0xbd071be1	-0.03298557
74	0xbdd8f4c0	-0.10593557
75	0x3d052cd5	0.03251346
76	0xbd9ab2a4	-0.07553604
77	0xbd5f5407	-0.054523494
78	0xbe2a0a20	-0.16605425
79	0x3dc232b1	0.09482325
80	0xbdd9dc04	-0.10637668
81	0x3dcb0801	0.09913636
82	0xbd90e3bf	-0.07074689
83	0x3ddb2c74	0.10701838
84	0xbd6d51cb	-0.057939332
85	0x3e0dd1f7	0.13849626
86	0xbdbe9625	-0.093059815
87	0xbd904ed5	-0.07046286
88	0xbceeef70	-0.029166907
89	0xbd086e1e	-0.03330814
90	0xbb60e47b	-0.0034315872
91	0x3da2ad84	0.07943252
92	0xbda16995	-0.07881466
93	0xbda614b3	-0.08109417
94	0x3df06e35	0.1173977
95	0x3db66132	0.08905257
96	0x3d863c2d	0.06554446
97	0xbc96f122	-0.018425528
98	0x3dc6e374	0.09711352
99	0xbd938ef7	-0.07205003
100	0xbd2cff51	-0.042235676
101	0x3de9d492	0.11417498
102	0x3c46601e	0.012107877
103	0x3ca412bf	0.02002847
104	0x3e0458fb	0.12924568
105	0xbd94f590	-0.072734
106	0x3e06c38a	0.1316053
107	0xbcd708f4	-0.026249386
108	0x3d5bb3a4	0.053638116
109	0x3def0d51	0.11672462
110	0x3da32965	0.0796688
111	0xbd48bd0e	-0.04900842
112	0x3daa677f	0.083205216
113	0x3d936ad9	0.07198114
114	0xbdab1879	-0.08354277
115	0xbd895d0a	-0.06707199
116	0x3d99d11a	0.07510586
117	0x3d896c82	0.06710149
118	0xbc4e6935	-0.0125983255
119	0x3c31c4e6	0.010850167
120	0x3e053a50	0.13010526
121	0xbd7412dd	-0.059588302
122	0xbd7f4313	-0.062319826
123	0x3cea5cfb	0.02860879
124	0x3dbade7b	0.09124466
125	0xbdb1b16c	-0.08676419
126	0x3d9414ca	0.07230528
127	0xbe076d05	-0.13225181
128	0xbdf0f866	-0.11766128
129	0x3dc1547b	0.094399415
130	0xbdbbe031	-0.091736205
131	0x3cce49a5	0.0251816
132	0xbcde2bd3	-0.027120506
133	0x3de91c17	0.11382311
134	0x3de46022	0.111511484
135	0x3d85361d	0.06504462
136	0x3d162db5	0.036664683
137	0xbda2acb6	-0.07943098
138	0xbcdf79c9	-0.027279751
139	0xbc8d2c8e	-0.01723316
140	0xbe09a337	-0.13441168
141	0xbda89dd3	-0.082332276
142	0xbd31f21e	-0.04344379
143	0xbdf01165	-0.11722068
144	0x3dbac5ad	0.09119735
145	0xbdddc9e5	-0.10829524
146	0xbddbdc8e	-0.10735427
147	0xbde84817	-0.11341875
148	0xbd930e51	-0.07180465
149	0x3e04df12	0.1297572
150	0xbca90bff	-0.020635603
151	0x3dfc33dc	0.12314579
152	0x3c014744	0.007890526
153	0xbcba400c	-0.022735618
154	0x3d83bd2f	0.06432568
155	0x3c4e6f6a	0.012599805
156	0x3d2980bf	0.041382547
157	0x3de54231	0.11194266
158	0xbdc2f854	-0.09520021
159	0xbe0255b9	-0.12728013
160	0x3e0ddf09	0.13854612
161	0xbcbdf796	-0.023189347
162	0x3b0ce95b	0.0021501395
163	0xbd6d5e7d	-0.05795144
164	0xbd9d3bc7	-0.07677417
165	0xbab4bc89	-0.0013789098
166	0xbb61c74d	-0.0034451068
167	0xbd957181	-0.0729704
168	0xbc6d0f5b	-0.014468993
169	0xbdf57ccf	-0.11986696
170	0xbc956328	-0.018235758
171	0x3d669e4b	0.056303304
172	0xbe5091dd	-0.20368142
173	0x3cb46fad	0.022025907
174	0xbcd45af8	-0.025922284
175	0x3d04cc32	0.0324213
176	0x3d064d47	0.03278854
177	0xbd940fb7	-0.0722956
178	0x3de2252d	0.11042247
179	0x3d86b006	0.065765426
180	0xbdec3ad7	-0.1153466
181	0x3df6c020	0.12048364
182	0x3e0fc2ff	0.14039229
183	0xbdecd3a2	-0.11563803
184	0xbc186951	-0.009302453
185	0x3e0dde57	0.13854347
186	0xbc0aab1f	-0.00846365
187	0x3d61f21d	0.055162538
188	0xbd2f6f22	-0.042830594
189	0x3da519ad	0.08061538
190	0x3d998bba	0.07497354
191	0xbd86e979	-0.065875
192	0xbdef62dd	-0.116887785
193	0x3cdf9068	0.027290538
194	0xbdf31fc5	-0.11871294
195	0x3dd7a0ba	0.10528703
196	0x3ce9eb4c	0.028554581
197	0xbe0a8b8f	-0.135298
198	0x3d642e5e	0.05570828
199	0xbd4e7f7e	-0.050414555
200	0xbd55cc70	-0.05219692
201	0x3ca9eef1	0.020743819
202	0xbd0d5130	-0.034501255
203	0x3cc75216	0.024331134
204	0xbd7c5a61	-0.06160963
205	0x3d28a993	0.041177344
206	0x3d9be9eb	0.07612976
207	0x3c04920e	0.008091463
208	0xbd22030e	-0.039553694
209	0xbd93b2ff	-0.07211875
210	0x3d0699b5	0.03286143
211	0x3d0edffb	0.034881573
212	0xbc8861fb	-0.016648283
213	0xbde76eb7	-0.11300414
214	0xbd028fa3	-0.031875264
215	0x3e41d086	0.18927202
216	0xbce90f38	-0.02844964
217	0xbcbc7ec7	-0.02300967
218	0x3d87d46f	0.06632315
219	0x3dc9538c	0.098303884
220	0x3de7247f	0.11286258
221	0x3d4974e2	0.049183734
222	0xbdc5bd59	-0.09655256
223	0x3d1a8e11	0.03773314
224	0x3d317ff7	0.043334927
225	0x3dd6501c	0.104644984
226	0x3dc25451	0.09488738
227	0x3ce7a335	0.028276065
228	0x3df32a55	0.118733086
229	0x3d2d0df1	0.042249624
230	0xbcd5fd21	-0.026121678
231	0x3e24d754	0.16097766
232	0x3dc908b2	0.098161116
233	0x3de363f9	0.11103053
234	0x3dd14f26	0.102201745
235	0xbd6dd4c0	-0.058064222
236	0x3e1f7fa6	0.15576038
237	0xbcadcf18	-0.021216914
238	0xbccfb069	-0.025352674
239	0x3e2224e0	0.15834379
240	0x3db57781	0.08860684
241	0x3deca5b0	0.1155504
242	0x3d96015d	0.07324479
243	0x3da96a53	0.08272233
244	0x3de526d0	0.111890435
245	0xbd119027	-0.035537865
246	0x3d7fb853	0.062431645
247	0xbd45f277	-0.048326936
248	0x3d59b737	0.053153243
249	0xbd099cf4	-0.033596948
250	0x3cb0441c	0.021516852
251	0x3d30ff39	0.04321215
252	0xbd35a96b	-0.044351023
253	0xbd445d82	-0.04794074
254	0xbd42d653	-0.047567677
255	0xbd50e3ed	-0.050998617

conv1.bias f4 [16]
0	0xbe443645	-0.19161327
1	0xbd2606b0	-0.04053372
2	0x3df9d043	0.12197926
3	0x3dcc1546	0.09964995
4	0xbe57bf70	-0.21069121
5	0x3e122bde	0.14274547
6	0xbe86bdba	-0.26316625
7	0x3d8ab94e	0.06773625
8	0xbe20174d	-0.15633889
9	0xbdc4310f	-0.0957967
10	0xbdc91219	-0.09817905
11	0x3bfd1827	0.0077238264
12	0xbe417371	-0.18891694
13	0xbdcc425d	-0.09973595
14	0xbe2ca879	-0.16861142
15	0x3d545410	0.05183798

conv2.weight f4 [32, 16, 5, 5]
0	0x3d0aa87e	0.033852093
1	0x3d282050	0.04104644
2	0xbd542a36	-0.051798068
3	0x3b6887bb	0.0035481292
4	0x3d0a8b6c	0.03382437
5	0x3d4d4309	0.050112758
6	0x3dc7adbe	0.097499356
7	0xbb847e62	-0.0040433863
8	0x3d23495b	0.03986488
9	0x3c509930	0.012731835
10	0x3c32f1ee	0.010921938
11	0xbb08eec3	-0.0020894266
12	0xbd88db88	-0.06682497
13	0xbddfe625	-0.109325685
14	0xbc8d3e38	-0.017241582
15	0x3c87f263	0.016595071
16	0x3c24790f	0.010038628
17	0x3dae43b0	0.08509004
18	0xbd2daa8c	-0.042398974
19	0x3d021d73	0.031766366
20	0xbd18624f	-0.03720313
21	0xbc7b1217	-0.015324137
22	0x3d40ae20	0.04704106
23	0xbcf10e10	-0.02942565
24	0x3cc166b4	0.023608543
25	0xbd317f82	-0.04333449
26	0x3d02ee46	0.031965517
27	0x3b9c88db	0.0047770566
28	0xbd37dd3d	-0.044888724
29	0x3d0c707c	0.03428696
30	0xbc419cc2	-0.011817159
31	0xbbc53768	-0.006018568
32	0x3d69be9e	0.057066552
33	0xbda6d92a	-0.081468895
34	0xbcd43a70	-0.025906771
35	0xbd090ee5	-0.03346147
36	0xbd23965c	-0.039938316
37	0x3d6e5390	0.05818516
38	0xbd9276e3	-0.07151582
39	0xbdb28ddc	-0.08718464
40	0xbb9219b2	-0.0044586295
41	0xbd95ecd5	-0.07320563
42	0x3cddfb1b	0.027097275
43	0xbd6199b3	-0.05507822
44	0xbd9b1f2f	-0.07574307
45	0xbcf2a58e	-0.029619958
46	0xbd521723	-0.051291596
47	0x3d3a0204	0.04541208
48	0x3ce03ca4	0.027372666
49	0xbddd5250	-0.108067155
50	0xbaf881c8	-0.0018959576
51	0x3cc47f36	0.02398644
52	0xbc8c4a49	-0.017125266
53	0x3c8e9be1	0.017408313
54	0x3d0cd13d	0.034379233
55	0x3cbddf56	0.023177784
56	0x3d345a3c	0.044031367
57	0xbcecdbb8	-0.028913364
58	0xbd2c155d	-0.04201256
59	0x3d8c3338	0.06845707
60	0xbc957d9a	-0.018248368
61	0xbcae9d35	-0.021315197
62	0x3bd75c00	0.0065722466
63	0xbe024824	-0.12722832
64	0x3c52ef47	0.012874431
65	0xbca065d8	-0.019579813
66	0x3cdd0c37	0.026983364
67	0xbda2a22b	-0.07941087
68	0xbd197328	-0.037463337
69	0x3cc15cff	0.023603914
70	0xbda79145	-0.08182005
71	0x3c4becf5	0.012446632
72	0xbd8b71f9	-0.06808848
73	0xbd6fe0ac	-0.058563873
74	0x3d185746	0.037192605
75	0x3c44869a	0.011994982
76	0x3db8985f	0.090134375
77	0x3da8bb5c	0.08238861
78	0x3d205c1a	0.039150335
79	0xbc48a083	-0.0122453
80	0x3ca34160	0.019928634
81	0x3ce3b85b	0.027797868
82	0x3d8f7374	0.07004443
83	0xbcd2ca2f	-0.025731174
84	0xbc3605f1	-0.011109815
85	0xbd4408e4	-0.04786004
86	0xbd3ceb35	-0.04612275
87	0x3d182644	0.037145868
88	0xbd8829da	-0.066486076
89	0xbd1a3bb6	-0.0376546
90	0x3b9a5145	0.004709395
91	0x3d1f0e94	0.038832262
92	0x3d704722	0.058661588
93	0x3bc2f0d7	0.0059491205
94	0xbd3900d3	-0.0451668
95	0xbb328a1c	-0.0027242964
96	0x3c75d2ce	0.015003873
97	0x3c8f7a83	0.017514473
98	0x3c22f362	0.009945722
99	0xbd45fdfb	-0.048337918
100	0xbd1320bd	-0.035919894
101	0xbc0d5c70	-0.008627996
102	0x3cd5330f	0.026025323
103	0xbcc4d2a8	-0.02402623
104	0xbd872b57	-0.06600063
105	0x3cd53ae3	0.026029056
106	0x3d093baa	0.033504166
107	0x3dc7c2eb	0.097539745
108	0x3e2cf57c	0.1689052
109	0x3d24e9bc	0.04026197
110	0xbd9cc856	-0.076553985
111	0xbd899f05	-0.06719784
112	0x3b612ee8	0.0034360234
113	0xbcba7ec3	-0.022765523
114	0xbd5c9cf6	-0.053860627
115	0xbd1461eb	-0.036226194
116	0xbd8f8718	-0.07008189
117	0xbdb3f727	-0.08787375
118	0xbd91851a	-0.07105465
119	0xbd66d700	-0.056357384
120	0x3d105e6d	0.0352463
121	0x3d92fd7c	0.071772546
122	0x3d5d39d1	0.054010216
123	0xbba3b92a	-0.0049964385
124	0xbd29ee4f	-0.041487034
125	0xbd18223a	-0.037142016
126	0x3d63306e	0.055466108
127	0x3d1e635a	0.038668968
128	0xbb8c27a1	-0.004277185
129	0x3d232e10	0.03983885
130	0x3d0eff71	0.034911577
131	0xbc04114f	-0.008060767
132	0x3d3e12af	0.046404537
133	0xbd13220e	-0.03592115
134	0x3cbd06ff	0.023074625
135	0xbc6e27ae	-0.014535828
136	0x3b7e7fb0	0.0038833432
137	0x3d19b347	0.037524488
138	0xbdb183c8	-0.086677134
139	0x3d22151f	0.039570924
140	0x3d02739b	0.03184853
141	0x3c357d43	0.011077228
142	0xbcb916de	-0.022593912
143	0xbdc3daef	-0.09563243
144	0xbc8cf8b3	-0.017208433
145	0xbd2adb4b	-0.04171304
146	0x3cce6f57	0.025199575
147	0x3d2c8c1b	0.042125802
148	0xbd0b8b3a	-0.034068324
149	0xbd4dfc89	-0.050289664
150	0x3cd1b908	0.025600925
151	0x3d6c596b	0.057702463
152	0x3d814072	0.0631112
153	0x3c2a8387	0.010407335
154	0x3d53f2a4	0.051745072
155	0xbcacdd99	-0.02110176
156	0x3cca3f9a	0.02468853
157	0xbce04267	-0.027375413
158	0xbca71b0e	-0.020398643
159	0xbd209e52	-0.039213486
160	0xbdd3ed63	-0.10348012
161	0x3c963dad	0.018339956
162	0xbd328a9d	-0.043589223
163	0xbc7c687e	-0.015405772
164	0x3ccf5c41	0.025312545
165	0xbda1af42	-0.07894756
166	0xbcc3641a	-0.023851443
167	0xbc582193	-0.0131915985
168	0xbb9dd460	-0.004816577
169	0xbc805091	-0.015663417
170	0xbd8035b5	-0.06260244
171	0xbd0d2935	-0.034463126
172	0xbb309642	-0.002694503
173	0xbc2958d4	-0.01033612
174	0x3cc10940	0.023563981
175	0x3d811e83	0.06304648
176	0x3c390693	0.011293071
177	0xbc680ec4	-0.014163677
178	0x3d1cd57f	0.038289543
179	0xbd33dd15	-0.043912012
180	0xbd420de6	-0.047376536
181	0xbd904834	-0.07045022
182	0xbd9108f3	-0.07081785
183	0xbd22c2bc	-0.039736494
184	0xbd97b099	-0.0740673
185	0xbd29f852	-0.041496582
186	0xbca85d65	-0.020552346
187	0xbd4334c3	-0.04765774
188	0xbd7f5b57	-0.062342968
189	0xbbeb3b30	-0.0071786866
190	0xbd90704a	-0.070526674
191	0xbd29e5b9	-0.041478846
192	0xbdd58fd1	-0.104278214
193	0xbdc2c57f	-0.09510326
194	0xbd5c6467	-0.05380669
195	0xbd9a344f	-0.07529508
196	0xbd44ad15	-0.048016626
197	0xbdb4067a	-0.08790298
198	0x3cb84326	0.022492956
199	0x3d1c7370	0.038196027
200	0xbdc78ad0	-0.09743273
201	0x3d9c6e04	0.07638171
202	0xbd7727d9	-0.060340736
203	0x3a6d68f1	0.000905647
204	0x3d363b11	0.044489924
205	0xbe04b271	-0.12958695
206	0x3d4effca	0.05053691
207	0xbd1bd6be	-0.03804659
208	0xbd2cd8d1	-0.04219896
209	0x3e1a7d59	0.15086879
210	0xbda29548	-0.079386294
211	0x3be2d9f6	0.0069229556
212	0xbcf08896	-0.029362004
213	0xbe195542	-0.1497393
214	0x3df4a929	0.11946327
215	0xbdd6cadd	-0.10487912
216	0xbe083513	-0.13301496
217	0x3b6789e7	0.003533
218	0xbe485257	-0.1956266
219	0x3e1c6740	0.15273762
220	0xbd9da4fb	-0.07697483
221	0xbdf03c89	-0.11730296
222	0x3d2e73e0	0.042590976
223	0xbe516734	-0.20449525
224	0xbb1ccd10	-0.0023925938
225	0xbb9f2318	-0.0048564784
226	0x3d11f0ca	0.035630025
227	0x3e193b17	0.14963947
228	0xbcba3cd4	-0.022734083
229	0xbd24c413	-0.040226053
230	0xbc329b77	-0.0109013235
231	0x3bd8d968	0.0066177137
232	0x3dd901e5	0.105960645
233	0xbcbb271e	-0.022845801
234	0xbd38ed4f	-0.04514819
235	0xbc86a7d1	-0.016437443
236	0xbdcb7a09	-0.09935386
237	0xbc5c147f	-0.013432621
238	0x3cdf3867	0.027248574
239	0xbe29b41d	-0.16572614
240	0xbda1b8cf	-0.078965776
241	0xbd319cf3	-0.04336257
242	0x3c565735	0.013082315
243	0xbc3c30ea	-0.011486271
244	0xbe25cdc3	-0.16191773
245	0xbdcff8da	-0.101548865
246	0xbd98ad24	-0.07454899
247	0xbcd97644	-0.026545651
248	0xbd759828	-0.05995956
249	0xbe220824	-0.15823418
250	0xbd6906e4	-0.056891337
251	0xbdc50302	-0.09619714
252	0xbd447365	-0.04796161
253	0xbc32ca2a	-0.0109124575
254	0xbd7cbb6f	-0.061702188
255	0x3d5a5585	0.053304214

conv2.bias f4 [32]
0	0xbda9cbee	-0.082908496
1	0xbd47d60c	-0.048788115
2	0xbe494109	-0.19653715
3	0xbe074939	-0.13211526
4	0xbe488dd7	-0.19585358
5	0x3d54a170	0.05191177
6	0xbcc17cf0	-0.023619145
7	0x3c37bc74	0.011214364
8	0xbe126c39	-0.14299096
9	0xbcacb920	-0.021084368
10	0xbbe9b48a	-0.0071321176
11	0x3cfa4b8a	0.030553598
12	0xbe09e7ab	-0.1346728
13	0xbdbf5c78	-0.09343809
14	0x3d335150	0.043778718
15	0xbdde5083	-0.108552
16	0xbdddb61c	-0.1082575
17	0xbdad94b8	-0.084756315
18	0xbd8c0fbc	-0.068389386
19	0xbe02d4b5	-0.12776454
20	0xbdb7d380	-0.08975887
21	0xbc2660cd	-0.010154915
22	0xbc004881	-0.007829786
23	0xbc385db9	-0.011252814
24	0xbe0182d8	-0.12647569
25	0xbd336b7f	-0.04380369
26	0xbe40f8e5	-0.18844946
27	0xbd844157	-0.06457775
28	0x3d13d4ca	0.036091603
29	0xbd226be9	-0.039653692
30	0xbc9d9a3e	-0.019238587
31	0xbd995ff7	-0.07489007

fc1.weight f4 [120, 800]
0	0x3d927765	0.07151679
1	0xbc6bfc05	-0.014403348
2	0x3c73a499	0.014870786
3	0x3d04e6e7	0.032446768
4	0xbc57baef	-0.013167127
5	0xbda6b357	-0.08139675
6	0xbd2f9c29	-0.042873535
7	0xbc598399	-0.013276004
8	0x3d8468a2	0.064652696
9	0x3cd87604	0.026423462
10	0x3d06af86	0.032882236
11	0x3b49ef71	0.0030812884
12	0xbd50d47b	-0.050983887
13	0x3d4d526e	0.05012744
14	0x3cdfa7bf	0.027301667
15	0x3bf8cda5	0.007592874
16	0x3d9fa3ce	0.07794915
17	0xbce14a44	-0.027501233
18	0xbd5440aa	-0.05181948
19	0x3d4f1d27	0.05056491
20	0x3c50d890	0.012746945
21	0x3d0e1f66	0.034697913
22	0xbc51636c	-0.012780052
23	0xbc797b33	-0.015227127
24	0x3bf19710	0.0073727444
25	0xbd0710e6	-0.0329751
26	0x3c7f5c7d	0.015586016
27	0xbd185780	-0.03719282
28	0xbc4b17cd	-0.012395811
29	0x3e012df6	0.12615189
30	0xbda0f85d	-0.078598715
31	0xbd9adf13	-0.07562079
32	0xbd7a8827	-0.061165
33	0xbd739de2	-0.05947674
34	0x3d50c36b	0.050967615
35	0xbde7a2a5	-0.11310319
36	0xbdda3a7e	-0.10655688
37	0xbcf93b6a	-0.030423839
38	0xbd2d9846	-0.042381547
39	0x3dcd2411	0.10016645
40	0xbd37ba05	-0.044855136
41	0x3dc97c94	0.098382145
42	0x3d9b309f	0.07577633
43	0xbc4f6c23	-0.012660059
44	0xbcfdc1cd	-0.0309762
45	0x3d626d5f	0.055280086
46	0x3d88c9f8	0.066791475
47	0x3dca9e48	0.09893471
48	0xbbd234e7	-0.006414998
49	0x3d1f055d	0.038823474
50	0xbcedcf49	-0.029029505
51	0x3b12754b	0.0022347744
52	0x3c14e05e	0.009086696
53	0x3d486dd4	0.048932865
54	0x3e13cf82	0.14434627
55	0xbdec0567	-0.11524468
56	0xbd5c8388	-0.053836375
57	0xbd8719df	-0.065967314
58	0xbd673f53	-0.056456875
59	0xbc8b77d1	-0.017024906
60	0xbda5416a	-0.08069117
61	0xbc9ce740	-0.019153237
62	0xbd9234d9	-0.07138986
63	0xbb5855dd	-0.0033010163
64	0xbd381c60	-0.044948936
65	0xbd1c7bff	-0.03820419
66	0x3d365047	0.044510152
67	0xbcfc4970	-0.030796736
68	0xbd50fa54	-0.05101998
69	0xbc78f15a	-0.015194261
70	0x3cf9a637	0.030474765
71	0x3d2c0464	0.041996375
72	0x3d77c511	0.06049067
73	0x3ccd3930	0.025051683
74	0x3dafeb73	0.0858983
75	0x3ca5006e	0.020141806
76	0xbaee5010	-0.001818182
77	0xbbaf99d0	-0.005358912
78	0xbd234fdd	-0.039871085
79	0x3d38ea29	0.045145188
80	0xbc4fd897	-0.012685916
81	0xbc9a4644	-0.018832333
82	0xbddcb24f	-0.10776197
83	0xbde372e3	-0.11105897
84	0xbda34eec	-0.079740375
85	0xbcda6f92	-0.026664529
86	0x3cd0395f	0.025417982
87	0x3d0a8b79	0.033824418
88	0x3c75db9e	0.015005974
89	0xb882ee3c	-6.243258e-05
90	0x3d84fc08	0.06493384
91	0x3dc8f615	0.098125614
92	0x3d40cc3a	0.047069766
93	0x3cc37e30	0.023863882
94	0x3db28dd1	0.087184556
95	0x3d95f200	0.073215485
96	0x3c67e923	0.014154705
97	0xbca4692a	-0.020069677
98	0x3cd97ac8	0.026547804
99	0x3d20e51b	0.039280992
100	0x3dcbe7c3	0.099563144
101	0x3d210c0f	0.03931814
102	0xbc9e7d0e	-0.01934674
103	0x3d778964	0.06043376
104	0x3c931079	0.01795219
105	0x3d7a8174	0.061158612
106	0xbd4bc024	-0.049743786
107	0xbe12e821	-0.14346363
108	0xbd5a25d3	-0.05325873
109	0xbbefb3e0	-0.007315144
110	0x3c8fc6ab	0.017550787
111	0xbe0c4c72	-0.13701037
112	0xbdd5bf4c	-0.104368776
113	0xbd898bf5	-0.06716148
114	0xbd55ef35	-0.05223008
115	0x3deb45aa	0.11487897
116	0x3c12a97b	0.00895154
117	0xbd1b6d30	-0.037945926
118	0xbbe9a4b3	-0.0071302294
119	0xbd5219e2	-0.051294215
120	0x3d4eaa75	0.05045553
121	0x3c63f132	0.013912486
122	0x3d0d8c94	0.034557894
123	0xbae1408a	-0.0017185372
124	0x3c56db14	0.013113756
125	0x3d98d11c	0.074617594
126	0x3d88c1ab	0.06677564
127	0x3dbc7b9b	0.09203263
128	0x3d446e92	0.04795701
129	0x3d0edcb2	0.03487844
130	0x3d6b6ddb	0.057477813
131	0xba2ab00b	-0.0006511218
132	0x3de65d70	0.112482905
133	0x3d640184	0.055665508
134	0x3d16a0e2	0.036774524
135	0xbcf5b163	-0.029991811
136	0xbd54dc6e	-0.05196803
137	0x3cf5acee	0.029989686
138	0x39c35186	0.00037254038
139	0x3cb9bcbb	0.022673002
140	0xbc7de3a9	-0.015496173
141	0xbd123c45	-0.03570201
142	0x3c260768	0.010133602
143	0x3c8a60f3	0.016891932
144	0xbd933858	-0.07188481
145	0xbc2e2ad1	-0.010630325
146	0x3d18c978	0.03730151
147	0x3b5b37c6	0.0033449992
148	0xbd28b928	-0.041192204
149	0xbdda30f9	-0.10653872
150	0x3db809f1	0.08986271
151	0xbc97846a	-0.018495757
152	0x3cdfc971	0.027317734
153	0xbbacb1bd	-0.0052702115
154	0xbceb219e	-0.028702553
155	0x3c928863	0.0178873
156	0xbdd72772	-0.105055705
157	0xbd96fc13	-0.07372298
158	0xbdf38662	-0.11890866
159	0xbc239e64	-0.009986494
160	0x3c21ce62	0.009875866
161	0xbd4e94c6	-0.05043485
162	0xbd9ae9ce	-0.07564126
163	0xbdd6cfcf	-0.10488855
164	0x3d103195	0.035203535
165	0xbd398a9e	-0.04529821
166	0xbdaf6c4f	-0.0856558
167	0x3b3976b3	0.002829951
168	0xbc30c96a	-0.010790208
169	0x3cb8f00b	0.022575399
170	0xbdeb6db8	-0.114955366
171	0xbdceb07c	-0.100922555
172	0xbc8f8663	-0.017520135
173	0xbd83cecc	-0.06435928
174	0xbd4a62f0	-0.04941076
175	0xbe0f5134	-0.1399582
176	0xbd26371e	-0.040579908
177	0xbc6c2141	-0.014412225
178	0xbd7ea67a	-0.062170483
179	0xbdfb437e	-0.122687325
180	0x3c473fc2	0.012161197
181	0x3d5ca612	0.053869314
182	0xbbf92829	-0.0076036644
183	0x3d1b4b7f	0.037913796
184	0x3b69f2b6	0.0035697646
185	0x3d17e548	0.037083894
186	0x3cb241c2	0.021759871
187	0x3d411e99	0.04714832
188	0x3d3317ff	0.043724056
189	0x3de67951	0.11253608
190	0x3d52271a	0.05130682
191	0xbd2e7afc	-0.042597756
192	0xbc91ae61	-0.017783346
193	0x3d036514	0.032078817
194	0x3d154972	0.036446996
195	0x3cbe06dc	0.02319663
196	0xbb38be31	-0.0028189535
197	0xbca57f94	-0.020202436
198	0x3d7d7ebb	0.061888438
199	0xbd0ab754	-0.03386624
200	0xbca38f60	-0.019965827
201	0xbc0c2c43	-0.008555475
202	0xbc4dd1b6	-0.012562206
203	0xbcd5fa36	-0.026120286
204	0xbc978a0a	-0.01849844
205	0x3d9c6ee9	0.07638342
206	0x3d061524	0.032735005
207	0x3d69984e	0.057030015
208	0x3e14a276	0.14515099
209	0x3d9bb226	0.076023385
210	0xba2c0b72	-0.0006562985
211	0x3c945259	0.018105673
212	0x3d022b0c	0.031779334
213	0x3daa63f5	0.083198465
214	0x3d27805a	0.04089389
215	0xbc668171	-0.014068947
216	0xbd86cd7c	-0.06582162
217	0xbdf6048c	-0.12012586
218	0xbdeb6aa7	-0.11494952
219	0xbd8a0a97	-0.06740301
220	0xbdd5bdfb	-0.104366265
221	0xbe094348	-0.13404572
222	0xbe23de76	-0.16002831
223	0xbe04dacf	-0.12974094
224	0xbe36fd68	-0.17870104
225	0xbd0138ac	-0.031548187
226	0x3d2477b2	0.040153213
227	0x3c988e0a	0.018622417
228	0x3c8609db	0.016362121
229	0x3e4b05b1	0.1982639
230	0x3d4eb92d	0.050469566
231	0xbdbc96b1	-0.092084296
232	0xbdd55850	-0.10417235
233	0xbd78d2a8	-0.060747772
234	0x3bd9499d	0.00663109
235	0xbc2afb4d	-0.010435891
236	0xbd906598	-0.070506275
237	0xbcd0df02	-0.025496963
238	0xbd5e4d12	-0.05427272
239	0xbd16786f	-0.03673595
240	0x3db64e5c	0.089016646
241	0x3d813878	0.06309599
242	0x3da3d328	0.07999259
243	0x3d1d0914	0.038338736
244	0x3c2f627e	0.010704635
245	0x3dabdf54	0.08392206
246	0x3df21f1d	0.11822341
247	0x3e00f42b	0.12593143
248	0x3d4ee91f	0.05051529
249	0x3d875a55	0.06609026
250	0x3cdc90e6	0.026924562
251	0x3d37d39f	0.044879552
252	0x3da96baa	0.082724884
253	0x3c66302e	0.014049573
254	0x3da529fc	0.080646485
255	0xbc372b59	-0.0111797685

fc1.bias f4 [120]
0	0x3dba965a	0.091107085
1	0x3d80beb2	0.06286372
2	0x3c940928	0.018070772
3	0xbd397930	-0.04528159
4	0xbcd73096	-0.026268285
5	0x3d8585a1	0.06519628
6	0xbd673a98	-0.056452364
7	0x3cf62980	0.030049086
8	0xbd31bc11	-0.043392245
9	0xbcc07843	-0.023494845
10	0xbc0a2ba8	-0.00843326
11	0xbc6dc24d	-0.014511657
12	0xbcd0078f	-0.02539423
13	0x3dff675c	0.12470886
14	0x3b80ed0f	0.0039345096
15	0x3e123abd	0.1428022
16	0xbdbd30a7	-0.09237795
17	0xbd864e8f	-0.065579526
18	0x3dba7ea5	0.09106187
19	0x3dca2a3a	0.09871335
20	0xbd867843	-0.06565907
21	0x3c7572d1	0.014980988
22	0x3d2eb1e2	0.04265011
23	0xbbc0a0a2	-0.005878524
24	0xbd8009b8	-0.06251854
25	0x3ce21af5	0.027600745
26	0x3d4d9712	0.0501929
27	0xbcccd6e8	-0.025004819
28	0xbcb7fa48	-0.02245821
29	0xbd8a1a38	-0.06743282
30	0xbd85403e	-0.06506394
31	0xbd45480e	-0.04816442
32	0x3da11544	0.07865384
33	0xbd4b4fa5	-0.0496365
34	0x3d996209	0.07489402
35	0x3c142515	0.009042044
36	0xbd5706f1	-0.052496854
37	0xbcfa24da	-0.03053515
38	0xbde3960e	-0.11112605
39	0x3be2121f	0.006899133
40	0x3d01eb91	0.031718794
41	0xbcfa1e2a	-0.030531961
42	0x3da72f40	0.08163309
43	0x3d46973d	0.048484076
44	0xbe2b8bed	-0.16752596
45	0x3d0d8ebf	0.03455996
46	0xbe0bd3e6	-0.13655052
47	0x3b06481a	0.0020489753
48	0x3d6bdffd	0.05758666
49	0x3d3864ac	0.045017883
50	0xbd8b61a3	-0.06805732
51	0x3d527614	0.05138214
52	0xbb3b43ef	-0.0028574427
53	0xbccbe97c	-0.024891607
54	0xbdf3ce2e	-0.1190456
55	0x3c02dfe8	0.007987954
56	0xbdd656f0	-0.10465801
57	0x3da46993	0.08027949
58	0xbd55455e	-0.052068107
59	0x3dabaad5	0.08382193
60	0xbd2799bb	-0.040918093
61	0xbdbcd563	-0.09220388
62	0xbdbbabe8	-0.09163648
63	0x3b69028a	0.0035554492
64	0xbbe801b4	-0.007080281
65	0xbd49ec80	-0.04929781
66	0x3a2a3c38	0.00064939586
67	0x3cc829fb	0.02443408
68	0x3d22cd5c	0.039746627
69	0xbd85a625	-0.0652583
70	0x3d247b6b	0.040156763
71	0xbbf34d8e	-0.0074250167
72	0xbbe4a68b	-0.0069778613
73	0xbd9fc9b0	-0.07802141
74	0xbcc0a0d1	-0.023514183
75	0x3d56a90b	0.052407306
76	0x3d771a0c	0.060327575
77	0xbdaef345	-0.08542494
78	0xbc91efad	-0.017814482
79	0x3c7dcea0	0.015491158
80	0x3b5e4bc2	0.0033919667
81	0x3db4f974	0.08836642
82	0xbd2b0cae	-0.04176014
83	0xbc8a680b	-0.016895315
84	0xbb0c2ac8	-0.0021387804
85	0xbd04e104	-0.032441154
86	0xbdf8b0a9	-0.1214307
87	0x3c89efa4	0.016837902
88	0x3d93598e	0.071948156
89	0x3b6ce6bc	0.003614827
90	0x3d6668eb	0.0562524
91	0x3d3d9adf	0.046290275
92	0x3d9e2ddf	0.07723593
93	0x3d61bfd4	0.055114582
94	0xbd2e173b	-0.042502623
95	0x3ce2eab2	0.027699802
96	0x3dc417d5	0.09574858
97	0xbd4f2a77	-0.050577607
98	0xbc7fcfdd	-0.015613523
99	0xbd299d9b	-0.04141007
100	0x3dfb92c2	0.12283851
101	0x3bc03609	0.0058658165
102	0xbd2a9439	-0.041645262
103	0xbc35e4e2	-0.011101933
104	0x3dddd0fe	0.10830878
105	0xbdca8aa1	-0.098897226
106	0xbdd0b72d	-0.10191188
107	0xbd60efd9	-0.054916237
108	0x3d7b497d	0.06134938
109	0xbd94a88d	-0.07258711
110	0x3ce16dfb	0.027518263
111	0x3d95731d	0.07297347
112	0xbcd466ff	-0.025928019
113	0xbd4402b4	-0.04785414
114	0x3d24b191	0.040208403
115	0x3b58e8dc	0.003309778
116	0x3cafe295	0.021470347
117	0xbd583e90	-0.05279404
118	0xbce5e507	-0.02806331
119	0x3c4520bb	0.012031729

fc2.weight f4 [84, 120]
0	0xbe293cba	-0.16527072
1	0x3c0c273a	0.008554274
2	0x3d12f5c5	0.035878915
3	0xbcf828e5	-0.030292938
4	0xbbc36958	-0.0059634857
5	0xbcbe5f44	-0.023238786
6	0x3df3314f	0.11874639
7	0x39e254a2	0.00043169135
8	0x3dd7cb2f	0.10536801
9	0xbd7192b5	-0.0589778
10	0x3de5835a	0.11206694
11	0xbd740294	-0.05957277
12	0xbe2ceae7	-0.16886483
13	0xbd2d7aa9	-0.042353306
14	0xbd816e3e	-0.06319855
15	0x3d89a107	0.06720167
16	0x3e02aaba	0.1276044
17	0xbdcfa953	-0.10139718
18	0xbdc9633e	-0.09833382
19	0xbdcb2759	-0.09919614
20	0xbdf3710a	-0.11886795
21	0xbc631586	-0.013860112
22	0xbd7257c4	-0.05916573
23	0x3df55583	0.11979201
24	0xbdcdc190	-0.10046685
25	0x3d0996e1	0.033591155
26	0xbdf08e50	-0.11745894
27	0xbb8e69cc	-0.004346108
28	0xbd5a2106	-0.05325415
29	0xbd85b1d8	-0.06528062
30	0xbe3068cf	-0.17227481
31	0x3d910ce2	0.07082535
32	0x3e0209cb	0.12699048
33	0xbe365090	-0.1780417
34	0x3dddab51	0.10823692
35	0x3d886402	0.066597
36	0xbe2b13e5	-0.16706808
37	0xbbbe2e41	-0.0058038537
38	0x3e151ea7	0.14562474
39	0xbcf8cd5a	-0.030371357
40	0x3e1fe22c	0.15613621
41	0xbd14a9f2	-0.036294885
42	0xbd0f0d04	-0.034924522
43	0xbd90c61b	-0.070690356
44	0x3e2e2519	0.17006339
45	0x3b0dad00	0.0021618009
46	0xbdd48cb1	-0.10378397
47	0x3cc86323	0.024461335
48	0x3db84962	0.08998372
49	0x3de13c6e	0.10997854
50	0xbc2c5480	-0.010518193
51	0xbcdcead3	-0.026967442
52	0x3e11a67c	0.14223665
53	0xbda3d1b1	-0.0799898
54	0x3d846097	0.064637356
55	0x3ca0dc9d	0.019636447
56	0x3ce81413	0.028329885
57	0x3e10342b	0.140824
58	0x3db01789	0.08598239
59	0xbd1f0e8b	-0.03883223
60	0x3d3f9c15	0.04677971
61	0x3d238e2a	0.0399305
62	0x3c9b34b6	0.018946033
63	0xbdca7e73	-0.098873995
64	0xbb85b189	-0.0040800017
65	0xbcc76e56	-0.024344604
66	0x3d40bdfa	0.047056176
67	0xbd9be6e9	-0.07612402
68	0x3dce808c	0.10083112
69	0x3e08a709	0.13344969
70	0x3da3af7c	0.07992455
71	0x3c0e2da5	0.008677875
72	0xbd3aaea5	-0.04557671
73	0x3e04d770	0.12972808
74	0x3d5402cc	0.05176048
75	0x3d973cf6	0.07384674
76	0x3d1ade37	0.037809577
77	0x3d0fe5e7	0.03513136
78	0xbd828475	-0.063729204
79	0xbe2bfb8e	-0.16795179
80	0x3d224b48	0.039622575
81	0xbc904da8	-0.017615154
82	0xbca5bfe4	-0.020233102
83	0x3c8fddc2	0.017561797
84	0xbde8f496	-0.11374776
85	0x3cc9b85c	0.024624042
86	0xbcc59e9c	-0.024123482
87	0x3de05b13	0.10954871
88	0x3e2e3cce	0.17015383
89	0xbdb7793c	-0.089586705
90	0x3bbc1e04	0.005740883
91	0xbde709e1	-0.11281181
92	0x3d9bdd58	0.07610577
93	0xbd2dd681	-0.042440895
94	0xbe041316	-0.12897906
95	0x3d37aad4	0.04484065
96	0x3d268c77	0.0406613
97	0x3da7fc44	0.08202413
98	0xbd765052	-0.060135193
99	0x3d92067c	0.07130143
100	0x3d12a893	0.035805296
101	0x3e4e84c0	0.20167828
102	0x3dae4514	0.08509269
103	0x3e1b8367	0.15186845
104	0xbd7ada0f	-0.061243113
105	0xbcd70abe	-0.02625024
106	0x3bd7fb4f	0.0065912376
107	0x3cf29f9a	0.02961712
108	0x3e4409f6	0.19144425
109	0x3d7f26ca	0.06229285
110	0xbc12ac51	-0.008952216
111	0xbdd30928	-0.10304481
112	0x3dde5256	0.10855548
113	0x3c87d245	0.016579757
114	0x3cad5251	0.021157416
115	0xbc1eff08	-0.009704359
116	0x3df01268	0.11722261
117	0xbd1288c2	-0.035774954
118	0x3b721afe	0.0036942358
119	0x3d8dac02	0.069175735
120	0xbddb4606	-0.10706715
121	0xbc6fe792	-0.014642613
122	0x3da6fdb1	0.081538565
123	0x3dda8498	0.106698215
124	0x3dab2fdf	0.0835874
125	0x3d1498d3	0.036278557
126	0x3d3758b8	0.044762343
127	0xbc586d21	-0.013209612
128	0x3de69578	0.11258978
129	0xbc5576a1	-0.013028772
130	0x3d0834cb	0.033253472
131	0xbd9b4428	-0.07581359
132	0xbd6d73fc	-0.05797194
133	0xbc044f4e	-0.008075548
134	0x3d800378	0.062506616
135	0xbc9d7333	-0.01921997
136	0xbd59aa84	-0.053141132
137	0x3d68a474	0.05679746
138	0xbcb5b8a9	-0.02218278
139	0xbe1877c0	-0.14889431
140	0xbd0df15d	-0.03465401
141	0x3bd035c4	0.0063540656
142	0xbc60629d	-0.013695386
143	0x3d168758	0.036750168
144	0x3c19a587	0.009377844
145	0x3ca209bf	0.019780038
146	0xbe0f33c2	-0.13984588
147	0xbce61fc9	-0.028091328
148	0xbdb1ef03	-0.08688166
149	0xbe20a918	-0.15689504
150	0x3e5fa399	0.21839751
151	0xbd31c8ba	-0.04340432
152	0xbdfe1538	-0.12406391
153	0x3dc5b38e	0.09653388
154	0xbe628f2c	-0.22124928
155	0xbd401303	-0.04689313
156	0x3c0bf30a	0.008541832
157	0x3e03da19	0.12876166
158	0xbe1959dc	-0.14975685
159	0xbdde5c6c	-0.10857472
160	0x3d1951f1	0.03743166
161	0x3d88c0a1	0.06677366
162	0x3ddbb006	0.10726933
163	0xbda069bb	-0.078326665
164	0x3d091284	0.033464924
165	0x3ab995d2	0.001415903
166	0x3d7f9096	0.062393747
167	0xbde58933	-0.11207809
168	0x3ddca4f3	0.10773649
169	0xbd3605c4	-0.044439092
170	0x3dd6304c	0.10458431
171	0x3d60e40a	0.054904975
172	0x3c0773ea	0.008267382
173	0x3ba6d505	0.005091312
174	0x3d7628a5	0.060097355
175	0x3cce235f	0.02516335
176	0x3d550fb9	0.052016947
177	0xbc9599af	-0.018261759
178	0xbe2cde52	-0.16881683
179	0x3ca433d9	0.020044254
180	0x3d1d0252	0.03833229
181	0x3dcd0378	0.10010427
182	0x3d9b814c	0.07593021
183	0x3d6a5941	0.057214025
184	0xbdec39ea	-0.11534484
185	0xbdb5cb37	-0.08876651
186	0x3dc1c5db	0.09461566
187	0xbd772b19	-0.060343836
188	0xbe5ae5f9	-0.2137679
189	0xbd078f54	-0.033095673
190	0xbdf82779	-0.12116904
191	0xbe182148	-0.14856446
192	0x3dba6716	0.09101693
193	0xbc44e43f	-0.012017309
194	0xbe155741	-0.14584066
195	0xbcf5dc8a	-0.030012388
196	0xbc650308	-0.0139777735
197	0x3d958856	0.07301395
198	0x3e5c6b88	0.21525395
199	0xbd23304e	-0.03984099
200	0x3cda301f	0.026634274
201	0x3c72769f	0.014798789
202	0xbd6d8d55	-0.057996113
203	0xbca2c079	-0.019867169
204	0x3d8a36a0	0.067487
205	0x3da9c348	0.082892
206	0x3e154920	0.14578676
207	0xbcdd48ba	-0.027012218
208	0xbd3c676b	-0.045997065
209	0x3c27b935	0.010237028
210	0xbe1dd0d2	-0.1541169
211	0x3d9563b1	0.07294405
212	0xbe245eac	-0.1605174
213	0x3d79c5a0	0.060979486
214	0xbdd1b88f	-0.1024028
215	0x3db15e94	0.086606175
216	0xbcf1b055	-0.029503027
217	0x3e67b351	0.22626998
218	0x3dd87c32	0.105705634
219	0x3e8255fd	0.2545623
220	0xbe72c33b	-0.23707287
221	0xbdc7f87a	-0.0976419
222	0xbe059361	-0.13044502
223	0xbbb2dbe5	-0.0054583424
224	0xbe1ad0dc	-0.15118736
225	0x3cbc7dbf	0.02300918
226	0x3da69fd0	0.081359506
227	0x3c9f839e	0.01947194
228	0xbd0c1be9	-0.034206305
229	0xbb9db616	-0.004812966
230	0xbd698b8e	-0.057017855
231	0x3d42a202	0.047517784
232	0x3cd59aaa	0.026074726
233	0x3db8a1b8	0.090152204
234	0x3c941ca5	0.018080065
235	0x3a086be0	0.0005204063
236	0x3e027b1b	0.12742274
237	0x3de5c2fd	0.11218832
238	0xbe0f087f	-0.13968085
239	0x3cb1d523	0.021708077
240	0x3d97e839	0.0741734
241	0x3e4f5ac5	0.2024947
242	0xbd0fd185	-0.035111923
243	0x3d6ef302	0.05833722
244	0xbd87812c	-0.066164345
245	0xbd9f1a5a	-0.07768698
246	0x3caa0d93	0.020758426
247	0xbd75c678	-0.060003728
248	0x3cd1f8c3	0.025631314
249	0x3e13b159	0.14423122
250	0x3c264ece	0.010150624
251	0x3d49a292	0.049227305
252	0xbcc5daf9	-0.024152266
253	0xbd7c8a98	-0.06165561
254	0x3d0b8acb	0.03406791
255	0xbd2bc6a8	-0.0419375

fc2.bias f4 [84]
0	0x3c7432ef	0.014904722
1	0xbba51830	-0.0050382838
2	0x3da7b5c9	0.0818897
3	0xbe1915a3	-0.1494966
4	0xbd662698	-0.05618915
5	0x3d712ece	0.058882527
6	0x3d87d9b4	0.066333205
7	0xbd6572f3	-0.056017827
8	0xbd4c65a7	-0.04990163
9	0x3d3440a7	0.04400697
10	0x3cdd651a	0.027025748
11	0x3c374607	0.011186129
12	0xbd9fab27	-0.077963166
13	0xbe011208	-0.12604535
14	0xbda917e7	-0.08256512
15	0xbd9da831	-0.076980956
16	0x3c952929	0.018208103
17	0xbda9f259	-0.08298177
18	0xbe16fd67	-0.14745103
19	0xbdc47953	-0.09593453
20	0xbd218513	-0.03943355
21	0xbcc37f43	-0.023864394
22	0xbde55120	-0.11197114
23	0xbe321723	-0.17391638
24	0xbd8617fd	-0.06547544
25	0xbe2b69f0	-0.1673963
26	0xbd965086	-0.073395774
27	0x3e237ce9	0.15965618
28	0x3dcfc02e	0.10144077
29	0xbdd53228	-0.10409957
30	0xbcef29c4	-0.02919472
31	0x3da107c2	0.07862808
32	0xbb15fbbf	-0.0022885648
33	0xbd00fb52	-0.031489678
34	0xbcd37f20	-0.025817454
35	0x3d68f386	0.056872867
36	0x3d82c7eb	0.063857876
37	0x3dd16b5a	0.10225554
38	0x3daf1242	0.08548404
39	0xbdacae15	-0.08431641
40	0x3cec5178	0.028847441
41	0xbc054b64	-0.00813565
42	0xbd0e5a2c	-0.034753963
43	0xbdc0b98f	-0.094103925
44	0xbd762704	-0.060095802
45	0xbcff264f	-0.031146197
46	0xbcad0d7d	-0.021124596
47	0xbc838b5f	-0.016057668
48	0x3c6ef3d9	0.014584505
49	0xbd8e6dc0	-0.06954527
50	0xbd8b56a7	-0.06803637
51	0x3d76f722	0.060294278
52	0x3c0c162c	0.008550208
53	0x3c5b800f	0.013397231
54	0xbbd2f48b	-0.006437843
55	0x3d88c895	0.06678883
56	0x3d48c604	0.049016967
57	0x3c84c074	0.01620505
58	0x3ce517d4	0.027965464
59	0xbd894a36	-0.06703608
60	0x3dc8abd8	0.097984016
61	0xbc71f2eb	-0.014767389
62	0x3d16a90a	0.036782302
63	0xbde99cc0	-0.11406851
64	0x3d01061f	0.03149998
65	0xbc8f76e7	-0.017512752
66	0x3d9b59ed	0.07585511
67	0xbd536c8f	-0.0516172
68	0xbcb9866d	-0.022647107
69	0xbd81ca87	-0.06337457
70	0xbdc3c269	-0.09558565
71	0xbd94a86a	-0.07258685
72	0xbd82c54b	-0.06385287
73	0x3d8ccd42	0.06875087
74	0x3e60cec9	0.21953882
75	0xbcd244cf	-0.025667576
76	0xbe21feca	-0.1581985
77	0xbcd703ca	-0.026246924
78	0xbd748d4c	-0.059705064
79	0xbde8f046	-0.113739535
80	0xbc7f0f63	-0.015567633
81	0xbbcad41c	-0.006189836
82	0x3dda8dac	0.10671553
83	0x3dbbe8e9	0.091752835

fc3.weight f4 [10, 84]
0	0xbdfa02da	-0.12207575
1	0xbdce1af3	-0.10063734
2	0xbe192766	-0.14956436
3	0xbe7354c4	-0.23762804
4	0x3d09738d	0.033557463
5	0xbd27da91	-0.040979926
6	0xbdb965c7	-0.090526156
7	0xbd891f20	-0.0669539
8	0xbe014ccb	-0.1262695
9	0x3d06f08b	0.032944243
10	0x3bf38e24	0.007432716
11	0xbd3b1f97	-0.045684423
12	0xbdf6f16c	-0.12057766
13	0xbdb4d57e	-0.08829783
14	0xbe3079bc	-0.17233938
15	0xbe258c0a	-0.16166702
16	0xbe454d87	-0.19267856
17	0xbe2e6c8c	-0.17033595
18	0xbe7b7996	-0.245581
19	0x3e0dc9db	0.13846533
20	0x3e19cd4e	0.15019724
21	0x3d7fd811	0.062461916
22	0xbac47252	-0.0014987683
23	0xbd6f9df3	-0.05850024
24	0xbe383e37	-0.17992483
25	0x3d2f5968	0.042809874
26	0x3d0da9a8	0.034585625
27	0x3e6805d5	0.22658475
28	0xbd3abb76	-0.045588933
29	0x3d5c55bf	0.05379271
30	0xbe61a15b	-0.22034208
31	0xbe08294c	-0.13297004
32	0x3dd18d09	0.102319784
33	0x3e1175ee	0.14205143
34	0xbd97eccc	-0.07418212
35	0x3e564989	0.20926489
36	0x3e9f3ce4	0.31101143
37	0x3e0e9608	0.1392442
38	0x3e15dd74	0.14635259
39	0x3d56bcc1	0.052426104
40	0x3e19d87f	0.15023993
41	0xbe5ce023	-0.21569876
42	0x3c887994	0.016659535
43	0xbe41872b	-0.18899219
44	0x3db27861	0.08714367
45	0xbcfbcef2	-0.030738328
46	0x3dda65b6	0.10663931
47	0x3d452cca	0.048138417
48	0xbd17405d	-0.036926616
49	0xbd695abf	-0.056971308
50	0xbe3fbf07	-0.18725215
51	0x3da71989	0.08159167
52	0xbe22b7fc	-0.15890497
53	0xbde19b84	-0.110159904
54	0x3db18244	0.08667424
55	0x3e3f31d5	0.18671353
56	0x3dc46d13	0.09591117
57	0xbe23fdaf	-0.16014741
58	0xbc879492	-0.016550336
59	0x3d7cad49	0.061688695
60	0xbdb054b3	-0.08609905
61	0xbe5df0bb	-0.21673863
62	0x3ddfb90d	0.109239675
63	0xbe5fde0e	-0.21862051
64	0xbd939280	-0.07205677
65	0xbdda8755	-0.10670344
66	0xbe816029	-0.25268677
67	0xbe639e7f	-0.2222843
68	0x3e45cacc	0.19315642
69	0xbd7330d4	-0.059372738
70	0xbe859979	-0.26093653
71	0xbdf0443d	-0.117317654
72	0x3d2cc4d6	0.042179905
73	0x3c47503e	0.012165127
74	0x3d3a7d2f	0.04552954
75	0xbddcb7e4	-0.10777262
76	0xbe5b2237	-0.2139977
77	0xbe890ade	-0.26766104
78	0xbd6ba56a	-0.057530798
79	0xbe27c67f	-0.16384314
80	0xbe6530ad	-0.2238185
81	0xbe48007f	-0.19531439
82	0xbe71536e	-0.23566982
83	0x3e272ab9	0.16324891
84	0xbdc2cc8d	-0.09511671
85	0x3e8ff28a	0.2811473
86	0x3c830a38	0.015996084
87	0xbde1e36c	-0.110297054
88	0x3bda37d8	0.006659489
89	0x3d61340a	0.05498127
90	0x3e6266bf	0.22109507
91	0xbe534710	-0.20632577
92	0xbe49ebc2	-0.1971884
93	0x3e4edd82	0.20201686
94	0x3e560ad4	0.20902568
95	0x3e6aaa04	0.22916418
96	0xbe564a4c	-0.2092678
97	0x3e4a7429	0.19770874
98	0xbe2db906	-0.16965112
99	0xbdb219a0	-0.08696294
100	0x3e00833e	0.12550065
101	0xbd6fcd50	-0.05854541
102	0xbd945dcd	-0.072444536
103	0xbe91d0f1	-0.28479722
104	0x3e2fc017	0.1716312
105	0xbe685484	-0.2268849
106	0xbde6b6bb	-0.11265322
107	0x3db5dad9	0.088796325
108	0x3e99f01f	0.3006601
109	0xbe46da09	-0.19419111
110	0x3dda0f8e	0.10647498
111	0x3e49dfd4	0.1971429
112	0xbe0d7079	-0.13812436
113	0x3e5577b9	0.20846452
114	0xbe003fdd	-0.12524362
115	0xbd7a472c	-0.06110303
116	0xbe3cc36c	-0.18433923
117	0x3e6cca5c	0.23124069
118	0xbe47fb2f	-0.19529413
119	0x3e17f047	0.14837752
120	0xbe234fb8	-0.15948379
121	0xbe8cc63d	-0.27494994
122	0x3bcad18e	0.0061895316
123	0x3e3e1ef8	0.18566501
124	0x3d6da2e1	0.05801666
125	0x3e0975ca	0.13423839
126	0xbea455b7	-0.32096645
127	0x3d736a38	0.05942747
128	0xbe0eb6d5	-0.13936932
129	0x3cab5949	0.020916598
130	0x3d9002f1	0.07031811
131	0xbd0a188b	-0.033714812
132	0x3e5e2758	0.21694696
133	0x3e7cb513	0.2467845
134	0x3e36389c	0.17795032
135	0xbe314a14	-0.17313415
136	0xbe48de2d	-0.19616003
137	0xbd84b9ce	-0.06480752
138	0xbe83053f	-0.2558994
139	0x3e540483	0.20704846
140	0xbc026493	-0.007958549
141	0xbc8dad86	-0.017294656
142	0xbe5de729	-0.21670212
143	0x3e381af5	0.17979033
144	0x3e5e1841	0.2168894
145	0xbc60b7cd	-0.0137156965
146	0x3d89ae7f	0.067227356
147	0xbe3a1ba8	-0.18174613
148	0xbbae6575	-0.005322153
149	0x3e41822e	0.18897316
150	0x3ca335e3	0.019923156
151	0x3e40a786	0.18813905
152	0xbe46626d	-0.19373484
153	0xbda8870e	-0.08228885
154	0xbd877b9d	-0.06615374
155	0x3e090890	0.13382173
156	0x3c635a6f	0.0138765415
157	0x3d4c0b53	0.049815487
158	0x3dbcdb62	0.092215315
159	0x3d943e3e	0.07238434
160	0xbe464f23	-0.19366126
161	0x3d65a423	0.056064736
162	0x3e783c80	0.24241829
163	0xbcf5544c	-0.029947422
164	0x3e8ce091	0.2751508
165	0x3e27e82a	0.16397157
166	0x3d92b934	0.07164231
167	0xbe59e299	-0.21277846
168	0xbc8778ce	-0.016537096
169	0x3d68af23	0.05680765
170	0x3e204cc1	0.1565428
171	0x3d6176dc	0.055044994
172	0x3e1da9fb	0.15396874
173	0x3dd7475c	0.105116576
174	0x3d921415	0.071327366
175	0x3d6e7168	0.05821362
176	0xbc01f3ca	-0.007931659
177	0xbe247573	-0.16060428
178	0xbdc071c5	-0.093967
179	0xbe0b0c6e	-0.1357896
180	0xbd6bff79	-0.057616685
181	0xbcff217b	-0.031143894
182	0xbd05cef2	-0.03266806
183	0xbcb078f6	-0.021542054
184	0xbd1bb70a	-0.038016357
185	0xbc65b0a7	-0.014019168
186	0x3e0fddc2	0.14049438
187	0xbe17fa2c	-0.14841527
188	0xbdf77ba9	-0.12084133
189	0xbc0371b4	-0.008022714
190	0xbb505662	-0.003178977
191	0xbe43b42a	-0.19111696
192	0xbdacdce8	-0.08440572
193	0xbe2570c1	-0.16156293
194	0xbdd2a617	-0.102855854
195	0x3d761fbc	0.060088858
196	0x3e713c6d	0.23558207
197	0xbdb111c2	-0.08645965
198	0x3d6d03ef	0.05786508
199	0x3e62ed06	0.2216073
200	0x3d951a9e	0.072804675
201	0x3de4f1b3	0.11178913
202	0x3e49682f	0.19668649
203	0xbd67a87d	-0.056557167
204	0x3e157d8b	0.14598672
205	0x3e46adfe	0.1940231
206	0x3d98ec41	0.07466937
207	0xbdd430dd	-0.103608824
208	0x3e3dd8b8	0.18539703
209	0xbd793181	-0.060838226
210	0xbd3bd8ae	-0.04586094
211	0x3d5c263c	0.0537474
212	0x3de34f48	0.11099106
213	0xbe93e818	-0.2888801
214	0x3e284093	0.16430883
215	0xbcafa7a4	-0.021442242
216	0xbe1140b4	-0.14184839
217	0xbc529c9a	-0.01285472
218	0xbdb914a5	-0.09037141
219	0x3e12a0f7	0.14319216
220	0x3d3ba783	0.04581405
221	0xbd910701	-0.07081414
222	0x3e15b136	0.14618382
223	0xba50acdd	-0.0007960329
224	0xbdf573de	-0.119849905
225	0x3e96b686	0.2943613
226	0x3cb6300e	0.022239711
227	0x3dacd1fb	0.08438488
228	0xbd4e9b90	-0.050441325
229	0x3e8126b4	0.2522484
230	0xbdfc08b2	-0.12306346
231	0xbdde54ae	-0.10855995
232	0x3e38e211	0.18054987
233	0x3e185823	0.14877371
234	0x3e68f2b3	0.22748832
235	0x3df2bf39	0.11852879
236	0x3d9ea8b7	0.077470236
237	0x3e3a0b17	0.18168293
238	0x3e3cba91	0.18430544
239	0xbddc1495	-0.10746113
240	0xbdcb8dd6	-0.099391624
241	0xbe2ecc7f	-0.17070197
242	0x3d31c67b	0.043402176
243	0xbe1badae	-0.15202972
244	0xbe14735f	-0.14497136
245	0xbddeccc1	-0.108788975
246	0xbd05b236	-0.03264066
247	0x3dbaabbb	0.09114786
248	0xbe0f3cff	-0.13988112
249	0xbd9184aa	-0.07105382
250	0xbe83f0db	-0.25769696
251	0x3e15ea81	0.14640237
252	0xbd2a35e8	-0.041555315
253	0xbe4e53d3	-0.20149164
254	0x3deed3f7	0.11661523
255	0xbd65a1d4	-0.056062534

fc3.bias f4 [10]
0	0x3cd6d4fb	0.026224604
1	0xbd2fd237	-0.042925086
2	0x3dfe179f	0.12406849
3	0x3d659b05	0.05605604
4	0xbd78568a	-0.060629405
5	0x39a2d3ec	0.00031056942
6	0x3d14ca17	0.03632554
7	0xbc8ffa2b	-0.017575344
8	0xbdbba30e	-0.091619596
9	0xbc3923d4	-0.011300046
